…
2023-04-12 15:41:54 - root - INFO: -           start_dual_prediction = 100
2023-04-12 15:41:54 - root - INFO: -           epoch = 500
2023-04-12 15:41:54 - root - INFO: -           batch_size = 256
2023-04-12 15:41:54 - root - INFO: -           lr = 0.0001
2023-04-12 15:41:54 - root - INFO: -           alpha = 9
2023-04-12 15:41:54 - root - INFO: -           lambda1 = 0.1
2023-04-12 15:41:54 - root - INFO: -           lambda2 = 0.1
2023-04-12 15:41:54 - root - INFO: - print_num = 100
2023-04-12 15:41:54 - root - INFO: - dataset = LandUse_21
2023-04-12 15:42:09 - root - INFO: - Autoencoder(
  (_encoder): Sequential(
    (0): Linear(in_features=59, out_features=1024, bias=True)
    (1): BatchNorm1d(1024, eps=1e-05, momentum=0.1, affine=True, track_running_stats=True)
    (2): ReLU()
    (3): Linear(in_features=1024, out_features=1024, bias=True)
    (4): BatchNorm1d(1024, eps=1e-05, momentum=0.1, affine=True, track_running_stats=True)
    (5): ReLU()
    (6): Linear(in_features=1024, out_features=1024, bias=True)
    (7): BatchNorm1d(1024, eps=1e-05, momentum=0.1, affine=True, track_running_stats=True)
    (8): ReLU()
    (9): Linear(in_features=1024, out_features=64, bias=True)
    (10): Softmax(dim=1)
  )
  (_decoder): Sequential(
    (0): Linear(in_features=64, out_features=1024, bias=True)
    (1): BatchNorm1d(1024, eps=1e-05, momentum=0.1, affine=True, track_running_stats=True)
    (2): ReLU()
    (3): Linear(in_features=1024, out_features=1024, bias=True)
    (4): BatchNorm1d(1024, eps=1e-05, momentum=0.1, affine=True, track_running_stats=True)
    (5): ReLU()
    (6): Linear(in_features=1024, out_features=1024, bias=True)
    (7): BatchNorm1d(1024, eps=1e-05, momentum=0.1, affine=True, track_running_stats=True)
    (8): ReLU()
    (9): Linear(in_features=1024, out_features=59, bias=True)
    (10): BatchNorm1d(59, eps=1e-05, momentum=0.1, affine=True, track_running_stats=True)
    (11): ReLU()
  )
)
2023-04-12 15:42:09 - root - INFO: - Prediction(
  (_encoder): Sequential(
    (0): Linear(in_features=64, out_features=128, bias=True)
    (1): BatchNorm1d(128, eps=1e-05, momentum=0.1, affine=True, track_running_stats=True)
    (2): ReLU()
    (3): Linear(in_features=128, out_features=256, bias=True)
    (4): BatchNorm1d(256, eps=1e-05, momentum=0.1, affine=True, track_running_stats=True)
    (5): ReLU()
    (6): Linear(in_features=256, out_features=128, bias=True)
    (7): BatchNorm1d(128, eps=1e-05, momentum=0.1, affine=True, track_running_stats=True)
    (8): ReLU()
  )
  (_decoder): Sequential(
    (0): Linear(in_features=128, out_features=256, bias=True)
    (1): BatchNorm1d(256, eps=1e-05, momentum=0.1, affine=True, track_running_stats=True)
    (2): ReLU()
    (3): Linear(in_features=256, out_features=128, bias=True)
    (4): BatchNorm1d(128, eps=1e-05, momentum=0.1, affine=True, track_running_stats=True)
    (5): ReLU()
    (6): Linear(in_features=128, out_features=64, bias=True)
    (7): Softmax(dim=1)
  )
)
2023-04-12 15:42:09 - root - INFO: - Adam (
Parameter Group 0
    amsgrad: False
    betas: (0.9, 0.999)
    eps: 1e-08
    lr: 0.0001
    weight_decay: 0
)
2023-04-12 15:42:22 - root - INFO: - [2;29mEpoch : 100/500 ===> Reconstruction loss = 16.8461===> Reconstruction loss = 8.6048 ===> Dual prediction loss = 0.1174  ===> Contrastive loss = -6.8988e+02 ===> Loss = -6.8733e+02[0m
…
